Decoder(
  (conv1): ConvTranspose2d (1, 8, kernel_size=(3, 3), stride=(1, 1), padding=(1, 1))
  (residual_block_11): resTransposeBlock(
    (conv1): ConvTranspose2d (8, 8, kernel_size=(3, 3), stride=(1, 1), padding=(1, 1))
    (bn1): BatchNorm2d(8, eps=1e-05, momentum=0.1, affine=True)
    (conv2): ConvTranspose2d (8, 8, kernel_size=(3, 3), stride=(1, 1), padding=(1, 1))
    (bn2): BatchNorm2d(8, eps=1e-05, momentum=0.1, affine=True)
  )
  (residual_block_12): resTransposeBlock(
    (conv1): ConvTranspose2d (8, 8, kernel_size=(3, 3), stride=(1, 1), padding=(1, 1))
    (bn1): BatchNorm2d(8, eps=1e-05, momentum=0.1, affine=True)
    (conv2): ConvTranspose2d (8, 8, kernel_size=(3, 3), stride=(1, 1), padding=(1, 1))
    (bn2): BatchNorm2d(8, eps=1e-05, momentum=0.1, affine=True)
  )
  (residual_block_13): resTransposeBlock(
    (conv1): ConvTranspose2d (8, 8, kernel_size=(3, 3), stride=(1, 1), padding=(1, 1))
    (bn1): BatchNorm2d(8, eps=1e-05, momentum=0.1, affine=True)
    (conv2): ConvTranspose2d (8, 8, kernel_size=(3, 3), stride=(1, 1), padding=(1, 1))
    (bn2): BatchNorm2d(8, eps=1e-05, momentum=0.1, affine=True)
  )
  (residual_block_14): resTransposeBlock(
    (conv1): ConvTranspose2d (8, 8, kernel_size=(3, 3), stride=(1, 1), padding=(1, 1))
    (bn1): BatchNorm2d(8, eps=1e-05, momentum=0.1, affine=True)
    (conv2): ConvTranspose2d (8, 8, kernel_size=(3, 3), stride=(1, 1), padding=(1, 1))
    (bn2): BatchNorm2d(8, eps=1e-05, momentum=0.1, affine=True)
  )
  (residual_block_15): resTransposeBlock(
    (conv1): ConvTranspose2d (8, 8, kernel_size=(3, 3), stride=(1, 1), padding=(1, 1))
    (bn1): BatchNorm2d(8, eps=1e-05, momentum=0.1, affine=True)
    (conv2): ConvTranspose2d (8, 8, kernel_size=(3, 3), stride=(1, 1), padding=(1, 1))
    (bn2): BatchNorm2d(8, eps=1e-05, momentum=0.1, affine=True)
  )
  (residual_block_16): resTransposeBlock(
    (conv1): ConvTranspose2d (8, 8, kernel_size=(3, 3), stride=(1, 1), padding=(1, 1))
    (bn1): BatchNorm2d(8, eps=1e-05, momentum=0.1, affine=True)
    (conv2): ConvTranspose2d (8, 8, kernel_size=(3, 3), stride=(1, 1), padding=(1, 1))
    (bn2): BatchNorm2d(8, eps=1e-05, momentum=0.1, affine=True)
  )
  (residual_block_17): resTransposeBlock(
    (conv1): ConvTranspose2d (8, 8, kernel_size=(3, 3), stride=(1, 1), padding=(1, 1))
    (bn1): BatchNorm2d(8, eps=1e-05, momentum=0.1, affine=True)
    (conv2): ConvTranspose2d (8, 8, kernel_size=(3, 3), stride=(1, 1), padding=(1, 1))
    (bn2): BatchNorm2d(8, eps=1e-05, momentum=0.1, affine=True)
  )
  (residual_block_18): resTransposeBlock(
    (conv1): ConvTranspose2d (8, 8, kernel_size=(3, 3), stride=(1, 1), padding=(1, 1))
    (bn1): BatchNorm2d(8, eps=1e-05, momentum=0.1, affine=True)
    (conv2): ConvTranspose2d (8, 8, kernel_size=(3, 3), stride=(1, 1), padding=(1, 1))
    (bn2): BatchNorm2d(8, eps=1e-05, momentum=0.1, affine=True)
  )
  (residual_block_19): resTransposeBlock(
    (conv1): ConvTranspose2d (8, 8, kernel_size=(3, 3), stride=(1, 1), padding=(1, 1))
    (bn1): BatchNorm2d(8, eps=1e-05, momentum=0.1, affine=True)
    (conv2): ConvTranspose2d (8, 8, kernel_size=(3, 3), stride=(1, 1), padding=(1, 1))
    (bn2): BatchNorm2d(8, eps=1e-05, momentum=0.1, affine=True)
  )
  (residual_block_110): resTransposeBlock(
    (conv1): ConvTranspose2d (8, 8, kernel_size=(3, 3), stride=(1, 1), padding=(1, 1))
    (bn1): BatchNorm2d(8, eps=1e-05, momentum=0.1, affine=True)
    (conv2): ConvTranspose2d (8, 8, kernel_size=(3, 3), stride=(1, 1), padding=(1, 1))
    (bn2): BatchNorm2d(8, eps=1e-05, momentum=0.1, affine=True)
  )
  (conv2): ConvTranspose2d (8, 32, kernel_size=(3, 3), stride=(1, 1), padding=(1, 1))
  (residual_block_21): resTransposeBlock(
    (conv1): ConvTranspose2d (32, 32, kernel_size=(3, 3), stride=(1, 1), padding=(1, 1))
    (bn1): BatchNorm2d(32, eps=1e-05, momentum=0.1, affine=True)
    (conv2): ConvTranspose2d (32, 32, kernel_size=(3, 3), stride=(1, 1), padding=(1, 1))
    (bn2): BatchNorm2d(32, eps=1e-05, momentum=0.1, affine=True)
  )
  (residual_block_22): resTransposeBlock(
    (conv1): ConvTranspose2d (32, 32, kernel_size=(3, 3), stride=(1, 1), padding=(1, 1))
    (bn1): BatchNorm2d(32, eps=1e-05, momentum=0.1, affine=True)
    (conv2): ConvTranspose2d (32, 32, kernel_size=(3, 3), stride=(1, 1), padding=(1, 1))
    (bn2): BatchNorm2d(32, eps=1e-05, momentum=0.1, affine=True)
  )
  (residual_block_23): resTransposeBlock(
    (conv1): ConvTranspose2d (32, 32, kernel_size=(3, 3), stride=(1, 1), padding=(1, 1))
    (bn1): BatchNorm2d(32, eps=1e-05, momentum=0.1, affine=True)
    (conv2): ConvTranspose2d (32, 32, kernel_size=(3, 3), stride=(1, 1), padding=(1, 1))
    (bn2): BatchNorm2d(32, eps=1e-05, momentum=0.1, affine=True)
  )
  (residual_block_24): resTransposeBlock(
    (conv1): ConvTranspose2d (32, 32, kernel_size=(3, 3), stride=(1, 1), padding=(1, 1))
    (bn1): BatchNorm2d(32, eps=1e-05, momentum=0.1, affine=True)
    (conv2): ConvTranspose2d (32, 32, kernel_size=(3, 3), stride=(1, 1), padding=(1, 1))
    (bn2): BatchNorm2d(32, eps=1e-05, momentum=0.1, affine=True)
  )
  (residual_block_25): resTransposeBlock(
    (conv1): ConvTranspose2d (32, 32, kernel_size=(3, 3), stride=(1, 1), padding=(1, 1))
    (bn1): BatchNorm2d(32, eps=1e-05, momentum=0.1, affine=True)
    (conv2): ConvTranspose2d (32, 32, kernel_size=(3, 3), stride=(1, 1), padding=(1, 1))
    (bn2): BatchNorm2d(32, eps=1e-05, momentum=0.1, affine=True)
  )
  (residual_block_26): resTransposeBlock(
    (conv1): ConvTranspose2d (32, 32, kernel_size=(3, 3), stride=(1, 1), padding=(1, 1))
    (bn1): BatchNorm2d(32, eps=1e-05, momentum=0.1, affine=True)
    (conv2): ConvTranspose2d (32, 32, kernel_size=(3, 3), stride=(1, 1), padding=(1, 1))
    (bn2): BatchNorm2d(32, eps=1e-05, momentum=0.1, affine=True)
  )
  (residual_block_27): resTransposeBlock(
    (conv1): ConvTranspose2d (32, 32, kernel_size=(3, 3), stride=(1, 1), padding=(1, 1))
    (bn1): BatchNorm2d(32, eps=1e-05, momentum=0.1, affine=True)
    (conv2): ConvTranspose2d (32, 32, kernel_size=(3, 3), stride=(1, 1), padding=(1, 1))
    (bn2): BatchNorm2d(32, eps=1e-05, momentum=0.1, affine=True)
  )
  (residual_block_28): resTransposeBlock(
    (conv1): ConvTranspose2d (32, 32, kernel_size=(3, 3), stride=(1, 1), padding=(1, 1))
    (bn1): BatchNorm2d(32, eps=1e-05, momentum=0.1, affine=True)
    (conv2): ConvTranspose2d (32, 32, kernel_size=(3, 3), stride=(1, 1), padding=(1, 1))
    (bn2): BatchNorm2d(32, eps=1e-05, momentum=0.1, affine=True)
  )
  (residual_block_29): resTransposeBlock(
    (conv1): ConvTranspose2d (32, 32, kernel_size=(3, 3), stride=(1, 1), padding=(1, 1))
    (bn1): BatchNorm2d(32, eps=1e-05, momentum=0.1, affine=True)
    (conv2): ConvTranspose2d (32, 32, kernel_size=(3, 3), stride=(1, 1), padding=(1, 1))
    (bn2): BatchNorm2d(32, eps=1e-05, momentum=0.1, affine=True)
  )
  (residual_block_210): resTransposeBlock(
    (conv1): ConvTranspose2d (32, 32, kernel_size=(3, 3), stride=(1, 1), padding=(1, 1))
    (bn1): BatchNorm2d(32, eps=1e-05, momentum=0.1, affine=True)
    (conv2): ConvTranspose2d (32, 32, kernel_size=(3, 3), stride=(1, 1), padding=(1, 1))
    (bn2): BatchNorm2d(32, eps=1e-05, momentum=0.1, affine=True)
  )
  (conv3): ConvTranspose2d (32, 64, kernel_size=(3, 3), stride=(2, 2), padding=(1, 1))
  (residual_block_31): resTransposeBlock(
    (conv1): ConvTranspose2d (64, 64, kernel_size=(3, 3), stride=(1, 1), padding=(1, 1))
    (bn1): BatchNorm2d(64, eps=1e-05, momentum=0.1, affine=True)
    (conv2): ConvTranspose2d (64, 64, kernel_size=(3, 3), stride=(1, 1), padding=(1, 1))
    (bn2): BatchNorm2d(64, eps=1e-05, momentum=0.1, affine=True)
  )
  (residual_block_32): resTransposeBlock(
    (conv1): ConvTranspose2d (64, 64, kernel_size=(3, 3), stride=(1, 1), padding=(1, 1))
    (bn1): BatchNorm2d(64, eps=1e-05, momentum=0.1, affine=True)
    (conv2): ConvTranspose2d (64, 64, kernel_size=(3, 3), stride=(1, 1), padding=(1, 1))
    (bn2): BatchNorm2d(64, eps=1e-05, momentum=0.1, affine=True)
  )
  (residual_block_33): resTransposeBlock(
    (conv1): ConvTranspose2d (64, 64, kernel_size=(3, 3), stride=(1, 1), padding=(1, 1))
    (bn1): BatchNorm2d(64, eps=1e-05, momentum=0.1, affine=True)
    (conv2): ConvTranspose2d (64, 64, kernel_size=(3, 3), stride=(1, 1), padding=(1, 1))
    (bn2): BatchNorm2d(64, eps=1e-05, momentum=0.1, affine=True)
  )
  (residual_block_34): resTransposeBlock(
    (conv1): ConvTranspose2d (64, 64, kernel_size=(3, 3), stride=(1, 1), padding=(1, 1))
    (bn1): BatchNorm2d(64, eps=1e-05, momentum=0.1, affine=True)
    (conv2): ConvTranspose2d (64, 64, kernel_size=(3, 3), stride=(1, 1), padding=(1, 1))
    (bn2): BatchNorm2d(64, eps=1e-05, momentum=0.1, affine=True)
  )
  (residual_block_35): resTransposeBlock(
    (conv1): ConvTranspose2d (64, 64, kernel_size=(3, 3), stride=(1, 1), padding=(1, 1))
    (bn1): BatchNorm2d(64, eps=1e-05, momentum=0.1, affine=True)
    (conv2): ConvTranspose2d (64, 64, kernel_size=(3, 3), stride=(1, 1), padding=(1, 1))
    (bn2): BatchNorm2d(64, eps=1e-05, momentum=0.1, affine=True)
  )
  (residual_block_36): resTransposeBlock(
    (conv1): ConvTranspose2d (64, 64, kernel_size=(3, 3), stride=(1, 1), padding=(1, 1))
    (bn1): BatchNorm2d(64, eps=1e-05, momentum=0.1, affine=True)
    (conv2): ConvTranspose2d (64, 64, kernel_size=(3, 3), stride=(1, 1), padding=(1, 1))
    (bn2): BatchNorm2d(64, eps=1e-05, momentum=0.1, affine=True)
  )
  (residual_block_37): resTransposeBlock(
    (conv1): ConvTranspose2d (64, 64, kernel_size=(3, 3), stride=(1, 1), padding=(1, 1))
    (bn1): BatchNorm2d(64, eps=1e-05, momentum=0.1, affine=True)
    (conv2): ConvTranspose2d (64, 64, kernel_size=(3, 3), stride=(1, 1), padding=(1, 1))
    (bn2): BatchNorm2d(64, eps=1e-05, momentum=0.1, affine=True)
  )
  (residual_block_38): resTransposeBlock(
    (conv1): ConvTranspose2d (64, 64, kernel_size=(3, 3), stride=(1, 1), padding=(1, 1))
    (bn1): BatchNorm2d(64, eps=1e-05, momentum=0.1, affine=True)
    (conv2): ConvTranspose2d (64, 64, kernel_size=(3, 3), stride=(1, 1), padding=(1, 1))
    (bn2): BatchNorm2d(64, eps=1e-05, momentum=0.1, affine=True)
  )
  (residual_block_39): resTransposeBlock(
    (conv1): ConvTranspose2d (64, 64, kernel_size=(3, 3), stride=(1, 1), padding=(1, 1))
    (bn1): BatchNorm2d(64, eps=1e-05, momentum=0.1, affine=True)
    (conv2): ConvTranspose2d (64, 64, kernel_size=(3, 3), stride=(1, 1), padding=(1, 1))
    (bn2): BatchNorm2d(64, eps=1e-05, momentum=0.1, affine=True)
  )
  (residual_block_310): resTransposeBlock(
    (conv1): ConvTranspose2d (64, 64, kernel_size=(3, 3), stride=(1, 1), padding=(1, 1))
    (bn1): BatchNorm2d(64, eps=1e-05, momentum=0.1, affine=True)
    (conv2): ConvTranspose2d (64, 64, kernel_size=(3, 3), stride=(1, 1), padding=(1, 1))
    (bn2): BatchNorm2d(64, eps=1e-05, momentum=0.1, affine=True)
  )
  (conv4): ConvTranspose2d (64, 3, kernel_size=(3, 3), stride=(2, 2), padding=(1, 1))
)