Encoder(
  (conv1): Conv2d (3, 64, kernel_size=(3, 3), stride=(2, 2), padding=(1, 1))
  (residual_block_11): resBlock(
    (conv1): Conv2d (64, 64, kernel_size=(3, 3), stride=(1, 1), padding=(1, 1))
    (bn1): BatchNorm2d(64, eps=1e-05, momentum=0.1, affine=True)
    (conv2): Conv2d (64, 64, kernel_size=(3, 3), stride=(1, 1), padding=(1, 1))
    (bn2): BatchNorm2d(64, eps=1e-05, momentum=0.1, affine=True)
  )
  (residual_block_12): resBlock(
    (conv1): Conv2d (64, 64, kernel_size=(3, 3), stride=(1, 1), padding=(1, 1))
    (bn1): BatchNorm2d(64, eps=1e-05, momentum=0.1, affine=True)
    (conv2): Conv2d (64, 64, kernel_size=(3, 3), stride=(1, 1), padding=(1, 1))
    (bn2): BatchNorm2d(64, eps=1e-05, momentum=0.1, affine=True)
  )
  (residual_block_13): resBlock(
    (conv1): Conv2d (64, 64, kernel_size=(3, 3), stride=(1, 1), padding=(1, 1))
    (bn1): BatchNorm2d(64, eps=1e-05, momentum=0.1, affine=True)
    (conv2): Conv2d (64, 64, kernel_size=(3, 3), stride=(1, 1), padding=(1, 1))
    (bn2): BatchNorm2d(64, eps=1e-05, momentum=0.1, affine=True)
  )
  (residual_block_14): resBlock(
    (conv1): Conv2d (64, 64, kernel_size=(3, 3), stride=(1, 1), padding=(1, 1))
    (bn1): BatchNorm2d(64, eps=1e-05, momentum=0.1, affine=True)
    (conv2): Conv2d (64, 64, kernel_size=(3, 3), stride=(1, 1), padding=(1, 1))
    (bn2): BatchNorm2d(64, eps=1e-05, momentum=0.1, affine=True)
  )
  (residual_block_15): resBlock(
    (conv1): Conv2d (64, 64, kernel_size=(3, 3), stride=(1, 1), padding=(1, 1))
    (bn1): BatchNorm2d(64, eps=1e-05, momentum=0.1, affine=True)
    (conv2): Conv2d (64, 64, kernel_size=(3, 3), stride=(1, 1), padding=(1, 1))
    (bn2): BatchNorm2d(64, eps=1e-05, momentum=0.1, affine=True)
  )
  (residual_block_16): resBlock(
    (conv1): Conv2d (64, 64, kernel_size=(3, 3), stride=(1, 1), padding=(1, 1))
    (bn1): BatchNorm2d(64, eps=1e-05, momentum=0.1, affine=True)
    (conv2): Conv2d (64, 64, kernel_size=(3, 3), stride=(1, 1), padding=(1, 1))
    (bn2): BatchNorm2d(64, eps=1e-05, momentum=0.1, affine=True)
  )
  (residual_block_17): resBlock(
    (conv1): Conv2d (64, 64, kernel_size=(3, 3), stride=(1, 1), padding=(1, 1))
    (bn1): BatchNorm2d(64, eps=1e-05, momentum=0.1, affine=True)
    (conv2): Conv2d (64, 64, kernel_size=(3, 3), stride=(1, 1), padding=(1, 1))
    (bn2): BatchNorm2d(64, eps=1e-05, momentum=0.1, affine=True)
  )
  (residual_block_18): resBlock(
    (conv1): Conv2d (64, 64, kernel_size=(3, 3), stride=(1, 1), padding=(1, 1))
    (bn1): BatchNorm2d(64, eps=1e-05, momentum=0.1, affine=True)
    (conv2): Conv2d (64, 64, kernel_size=(3, 3), stride=(1, 1), padding=(1, 1))
    (bn2): BatchNorm2d(64, eps=1e-05, momentum=0.1, affine=True)
  )
  (residual_block_19): resBlock(
    (conv1): Conv2d (64, 64, kernel_size=(3, 3), stride=(1, 1), padding=(1, 1))
    (bn1): BatchNorm2d(64, eps=1e-05, momentum=0.1, affine=True)
    (conv2): Conv2d (64, 64, kernel_size=(3, 3), stride=(1, 1), padding=(1, 1))
    (bn2): BatchNorm2d(64, eps=1e-05, momentum=0.1, affine=True)
  )
  (residual_block_110): resBlock(
    (conv1): Conv2d (64, 64, kernel_size=(3, 3), stride=(1, 1), padding=(1, 1))
    (bn1): BatchNorm2d(64, eps=1e-05, momentum=0.1, affine=True)
    (conv2): Conv2d (64, 64, kernel_size=(3, 3), stride=(1, 1), padding=(1, 1))
    (bn2): BatchNorm2d(64, eps=1e-05, momentum=0.1, affine=True)
  )
  (conv2): Conv2d (64, 32, kernel_size=(3, 3), stride=(2, 2), padding=(1, 1))
  (residual_block_21): resBlock(
    (conv1): Conv2d (32, 32, kernel_size=(3, 3), stride=(1, 1), padding=(1, 1))
    (bn1): BatchNorm2d(32, eps=1e-05, momentum=0.1, affine=True)
    (conv2): Conv2d (32, 32, kernel_size=(3, 3), stride=(1, 1), padding=(1, 1))
    (bn2): BatchNorm2d(32, eps=1e-05, momentum=0.1, affine=True)
  )
  (residual_block_22): resBlock(
    (conv1): Conv2d (32, 32, kernel_size=(3, 3), stride=(1, 1), padding=(1, 1))
    (bn1): BatchNorm2d(32, eps=1e-05, momentum=0.1, affine=True)
    (conv2): Conv2d (32, 32, kernel_size=(3, 3), stride=(1, 1), padding=(1, 1))
    (bn2): BatchNorm2d(32, eps=1e-05, momentum=0.1, affine=True)
  )
  (residual_block_23): resBlock(
    (conv1): Conv2d (32, 32, kernel_size=(3, 3), stride=(1, 1), padding=(1, 1))
    (bn1): BatchNorm2d(32, eps=1e-05, momentum=0.1, affine=True)
    (conv2): Conv2d (32, 32, kernel_size=(3, 3), stride=(1, 1), padding=(1, 1))
    (bn2): BatchNorm2d(32, eps=1e-05, momentum=0.1, affine=True)
  )
  (residual_block_24): resBlock(
    (conv1): Conv2d (32, 32, kernel_size=(3, 3), stride=(1, 1), padding=(1, 1))
    (bn1): BatchNorm2d(32, eps=1e-05, momentum=0.1, affine=True)
    (conv2): Conv2d (32, 32, kernel_size=(3, 3), stride=(1, 1), padding=(1, 1))
    (bn2): BatchNorm2d(32, eps=1e-05, momentum=0.1, affine=True)
  )
  (residual_block_25): resBlock(
    (conv1): Conv2d (32, 32, kernel_size=(3, 3), stride=(1, 1), padding=(1, 1))
    (bn1): BatchNorm2d(32, eps=1e-05, momentum=0.1, affine=True)
    (conv2): Conv2d (32, 32, kernel_size=(3, 3), stride=(1, 1), padding=(1, 1))
    (bn2): BatchNorm2d(32, eps=1e-05, momentum=0.1, affine=True)
  )
  (residual_block_26): resBlock(
    (conv1): Conv2d (32, 32, kernel_size=(3, 3), stride=(1, 1), padding=(1, 1))
    (bn1): BatchNorm2d(32, eps=1e-05, momentum=0.1, affine=True)
    (conv2): Conv2d (32, 32, kernel_size=(3, 3), stride=(1, 1), padding=(1, 1))
    (bn2): BatchNorm2d(32, eps=1e-05, momentum=0.1, affine=True)
  )
  (residual_block_27): resBlock(
    (conv1): Conv2d (32, 32, kernel_size=(3, 3), stride=(1, 1), padding=(1, 1))
    (bn1): BatchNorm2d(32, eps=1e-05, momentum=0.1, affine=True)
    (conv2): Conv2d (32, 32, kernel_size=(3, 3), stride=(1, 1), padding=(1, 1))
    (bn2): BatchNorm2d(32, eps=1e-05, momentum=0.1, affine=True)
  )
  (residual_block_28): resBlock(
    (conv1): Conv2d (32, 32, kernel_size=(3, 3), stride=(1, 1), padding=(1, 1))
    (bn1): BatchNorm2d(32, eps=1e-05, momentum=0.1, affine=True)
    (conv2): Conv2d (32, 32, kernel_size=(3, 3), stride=(1, 1), padding=(1, 1))
    (bn2): BatchNorm2d(32, eps=1e-05, momentum=0.1, affine=True)
  )
  (residual_block_29): resBlock(
    (conv1): Conv2d (32, 32, kernel_size=(3, 3), stride=(1, 1), padding=(1, 1))
    (bn1): BatchNorm2d(32, eps=1e-05, momentum=0.1, affine=True)
    (conv2): Conv2d (32, 32, kernel_size=(3, 3), stride=(1, 1), padding=(1, 1))
    (bn2): BatchNorm2d(32, eps=1e-05, momentum=0.1, affine=True)
  )
  (residual_block_210): resBlock(
    (conv1): Conv2d (32, 32, kernel_size=(3, 3), stride=(1, 1), padding=(1, 1))
    (bn1): BatchNorm2d(32, eps=1e-05, momentum=0.1, affine=True)
    (conv2): Conv2d (32, 32, kernel_size=(3, 3), stride=(1, 1), padding=(1, 1))
    (bn2): BatchNorm2d(32, eps=1e-05, momentum=0.1, affine=True)
  )
  (conv3): Conv2d (32, 8, kernel_size=(3, 3), stride=(1, 1), padding=(1, 1))
  (residual_block_31): resBlock(
    (conv1): Conv2d (8, 8, kernel_size=(3, 3), stride=(1, 1), padding=(1, 1))
    (bn1): BatchNorm2d(8, eps=1e-05, momentum=0.1, affine=True)
    (conv2): Conv2d (8, 8, kernel_size=(3, 3), stride=(1, 1), padding=(1, 1))
    (bn2): BatchNorm2d(8, eps=1e-05, momentum=0.1, affine=True)
  )
  (residual_block_32): resBlock(
    (conv1): Conv2d (8, 8, kernel_size=(3, 3), stride=(1, 1), padding=(1, 1))
    (bn1): BatchNorm2d(8, eps=1e-05, momentum=0.1, affine=True)
    (conv2): Conv2d (8, 8, kernel_size=(3, 3), stride=(1, 1), padding=(1, 1))
    (bn2): BatchNorm2d(8, eps=1e-05, momentum=0.1, affine=True)
  )
  (residual_block_33): resBlock(
    (conv1): Conv2d (8, 8, kernel_size=(3, 3), stride=(1, 1), padding=(1, 1))
    (bn1): BatchNorm2d(8, eps=1e-05, momentum=0.1, affine=True)
    (conv2): Conv2d (8, 8, kernel_size=(3, 3), stride=(1, 1), padding=(1, 1))
    (bn2): BatchNorm2d(8, eps=1e-05, momentum=0.1, affine=True)
  )
  (residual_block_34): resBlock(
    (conv1): Conv2d (8, 8, kernel_size=(3, 3), stride=(1, 1), padding=(1, 1))
    (bn1): BatchNorm2d(8, eps=1e-05, momentum=0.1, affine=True)
    (conv2): Conv2d (8, 8, kernel_size=(3, 3), stride=(1, 1), padding=(1, 1))
    (bn2): BatchNorm2d(8, eps=1e-05, momentum=0.1, affine=True)
  )
  (residual_block_35): resBlock(
    (conv1): Conv2d (8, 8, kernel_size=(3, 3), stride=(1, 1), padding=(1, 1))
    (bn1): BatchNorm2d(8, eps=1e-05, momentum=0.1, affine=True)
    (conv2): Conv2d (8, 8, kernel_size=(3, 3), stride=(1, 1), padding=(1, 1))
    (bn2): BatchNorm2d(8, eps=1e-05, momentum=0.1, affine=True)
  )
  (residual_block_36): resBlock(
    (conv1): Conv2d (8, 8, kernel_size=(3, 3), stride=(1, 1), padding=(1, 1))
    (bn1): BatchNorm2d(8, eps=1e-05, momentum=0.1, affine=True)
    (conv2): Conv2d (8, 8, kernel_size=(3, 3), stride=(1, 1), padding=(1, 1))
    (bn2): BatchNorm2d(8, eps=1e-05, momentum=0.1, affine=True)
  )
  (residual_block_37): resBlock(
    (conv1): Conv2d (8, 8, kernel_size=(3, 3), stride=(1, 1), padding=(1, 1))
    (bn1): BatchNorm2d(8, eps=1e-05, momentum=0.1, affine=True)
    (conv2): Conv2d (8, 8, kernel_size=(3, 3), stride=(1, 1), padding=(1, 1))
    (bn2): BatchNorm2d(8, eps=1e-05, momentum=0.1, affine=True)
  )
  (residual_block_38): resBlock(
    (conv1): Conv2d (8, 8, kernel_size=(3, 3), stride=(1, 1), padding=(1, 1))
    (bn1): BatchNorm2d(8, eps=1e-05, momentum=0.1, affine=True)
    (conv2): Conv2d (8, 8, kernel_size=(3, 3), stride=(1, 1), padding=(1, 1))
    (bn2): BatchNorm2d(8, eps=1e-05, momentum=0.1, affine=True)
  )
  (residual_block_39): resBlock(
    (conv1): Conv2d (8, 8, kernel_size=(3, 3), stride=(1, 1), padding=(1, 1))
    (bn1): BatchNorm2d(8, eps=1e-05, momentum=0.1, affine=True)
    (conv2): Conv2d (8, 8, kernel_size=(3, 3), stride=(1, 1), padding=(1, 1))
    (bn2): BatchNorm2d(8, eps=1e-05, momentum=0.1, affine=True)
  )
  (residual_block_310): resBlock(
    (conv1): Conv2d (8, 8, kernel_size=(3, 3), stride=(1, 1), padding=(1, 1))
    (bn1): BatchNorm2d(8, eps=1e-05, momentum=0.1, affine=True)
    (conv2): Conv2d (8, 8, kernel_size=(3, 3), stride=(1, 1), padding=(1, 1))
    (bn2): BatchNorm2d(8, eps=1e-05, momentum=0.1, affine=True)
  )
  (conv4): Conv2d (8, 1, kernel_size=(3, 3), stride=(1, 1), padding=(1, 1))
)